2020-03-27 15:30:16,192 - /home/by2101/OpenASR/egs/aishell1/s5/../../../src/train.py[line:112] - INFO: 
Model info:
Model(
  (splayer): SPLayer()
  (encoder): Transformer(
    (sub): Conv2dSubsampleV2(
      (conv): Sequential(
        (subsample/conv0): Conv2d(1, 32, kernel_size=(3, 3), stride=(2, 1))
        (subsample/relu0): ReLU()
        (subsample/conv1): Conv2d(32, 32, kernel_size=(3, 3), stride=(2, 1))
        (subsample/relu1): ReLU()
      )
      (affine): Linear(in_features=2432, out_features=512, bias=True)
    )
    (pe): PositionalEncoding()
    (dropout): Dropout(p=0.1)
    (transformer_encoder): TransformerEncoder(
      (layers): ModuleList(
        (0): TransformerEncoderLayer(
          (self_attn): MultiheadAttention(
            (out_proj): Linear(in_features=512, out_features=512, bias=True)
          )
          (linear1): Linear(in_features=512, out_features=4096, bias=True)
          (dropout): Dropout(p=0.1)
          (linear2): Linear(in_features=2048, out_features=512, bias=True)
          (norm1): LayerNorm(torch.Size([512]), eps=1e-05, elementwise_affine=True)
          (norm2): LayerNorm(torch.Size([512]), eps=1e-05, elementwise_affine=True)
          (dropout1): Dropout(p=0.1)
          (dropout2): Dropout(p=0.1)
        )
        (1): TransformerEncoderLayer(
          (self_attn): MultiheadAttention(
            (out_proj): Linear(in_features=512, out_features=512, bias=True)
          )
          (linear1): Linear(in_features=512, out_features=4096, bias=True)
          (dropout): Dropout(p=0.1)
          (linear2): Linear(in_features=2048, out_features=512, bias=True)
          (norm1): LayerNorm(torch.Size([512]), eps=1e-05, elementwise_affine=True)
          (norm2): LayerNorm(torch.Size([512]), eps=1e-05, elementwise_affine=True)
          (dropout1): Dropout(p=0.1)
          (dropout2): Dropout(p=0.1)
        )
        (2): TransformerEncoderLayer(
          (self_attn): MultiheadAttention(
            (out_proj): Linear(in_features=512, out_features=512, bias=True)
          )
          (linear1): Linear(in_features=512, out_features=4096, bias=True)
          (dropout): Dropout(p=0.1)
          (linear2): Linear(in_features=2048, out_features=512, bias=True)
          (norm1): LayerNorm(torch.Size([512]), eps=1e-05, elementwise_affine=True)
          (norm2): LayerNorm(torch.Size([512]), eps=1e-05, elementwise_affine=True)
          (dropout1): Dropout(p=0.1)
          (dropout2): Dropout(p=0.1)
        )
        (3): TransformerEncoderLayer(
          (self_attn): MultiheadAttention(
            (out_proj): Linear(in_features=512, out_features=512, bias=True)
          )
          (linear1): Linear(in_features=512, out_features=4096, bias=True)
          (dropout): Dropout(p=0.1)
          (linear2): Linear(in_features=2048, out_features=512, bias=True)
          (norm1): LayerNorm(torch.Size([512]), eps=1e-05, elementwise_affine=True)
          (norm2): LayerNorm(torch.Size([512]), eps=1e-05, elementwise_affine=True)
          (dropout1): Dropout(p=0.1)
          (dropout2): Dropout(p=0.1)
        )
        (4): TransformerEncoderLayer(
          (self_attn): MultiheadAttention(
            (out_proj): Linear(in_features=512, out_features=512, bias=True)
          )
          (linear1): Linear(in_features=512, out_features=4096, bias=True)
          (dropout): Dropout(p=0.1)
          (linear2): Linear(in_features=2048, out_features=512, bias=True)
          (norm1): LayerNorm(torch.Size([512]), eps=1e-05, elementwise_affine=True)
          (norm2): LayerNorm(torch.Size([512]), eps=1e-05, elementwise_affine=True)
          (dropout1): Dropout(p=0.1)
          (dropout2): Dropout(p=0.1)
        )
        (5): TransformerEncoderLayer(
          (self_attn): MultiheadAttention(
            (out_proj): Linear(in_features=512, out_features=512, bias=True)
          )
          (linear1): Linear(in_features=512, out_features=4096, bias=True)
          (dropout): Dropout(p=0.1)
          (linear2): Linear(in_features=2048, out_features=512, bias=True)
          (norm1): LayerNorm(torch.Size([512]), eps=1e-05, elementwise_affine=True)
          (norm2): LayerNorm(torch.Size([512]), eps=1e-05, elementwise_affine=True)
          (dropout1): Dropout(p=0.1)
          (dropout2): Dropout(p=0.1)
        )
      )
      (norm): LayerNorm(torch.Size([512]), eps=1e-05, elementwise_affine=True)
    )
  )
  (decoder): TransformerDecoder(
    (emb): Embedding(4233, 512)
    (pe): PositionalEncoding()
    (dropout): Dropout(p=0.1)
    (transformer_block): TransformerDecoder(
      (layers): ModuleList(
        (0): TransformerDecoderLayer(
          (self_attn): MultiheadAttention(
            (out_proj): Linear(in_features=512, out_features=512, bias=True)
          )
          (multihead_attn): MultiheadAttention(
            (out_proj): Linear(in_features=512, out_features=512, bias=True)
          )
          (linear1): Linear(in_features=512, out_features=4096, bias=True)
          (dropout): Dropout(p=0.1)
          (linear2): Linear(in_features=2048, out_features=512, bias=True)
          (norm1): LayerNorm(torch.Size([512]), eps=1e-05, elementwise_affine=True)
          (norm2): LayerNorm(torch.Size([512]), eps=1e-05, elementwise_affine=True)
          (norm3): LayerNorm(torch.Size([512]), eps=1e-05, elementwise_affine=True)
          (dropout1): Dropout(p=0.1)
          (dropout2): Dropout(p=0.1)
          (dropout3): Dropout(p=0.1)
        )
        (1): TransformerDecoderLayer(
          (self_attn): MultiheadAttention(
            (out_proj): Linear(in_features=512, out_features=512, bias=True)
          )
          (multihead_attn): MultiheadAttention(
            (out_proj): Linear(in_features=512, out_features=512, bias=True)
          )
          (linear1): Linear(in_features=512, out_features=4096, bias=True)
          (dropout): Dropout(p=0.1)
          (linear2): Linear(in_features=2048, out_features=512, bias=True)
          (norm1): LayerNorm(torch.Size([512]), eps=1e-05, elementwise_affine=True)
          (norm2): LayerNorm(torch.Size([512]), eps=1e-05, elementwise_affine=True)
          (norm3): LayerNorm(torch.Size([512]), eps=1e-05, elementwise_affine=True)
          (dropout1): Dropout(p=0.1)
          (dropout2): Dropout(p=0.1)
          (dropout3): Dropout(p=0.1)
        )
        (2): TransformerDecoderLayer(
          (self_attn): MultiheadAttention(
            (out_proj): Linear(in_features=512, out_features=512, bias=True)
          )
          (multihead_attn): MultiheadAttention(
            (out_proj): Linear(in_features=512, out_features=512, bias=True)
          )
          (linear1): Linear(in_features=512, out_features=4096, bias=True)
          (dropout): Dropout(p=0.1)
          (linear2): Linear(in_features=2048, out_features=512, bias=True)
          (norm1): LayerNorm(torch.Size([512]), eps=1e-05, elementwise_affine=True)
          (norm2): LayerNorm(torch.Size([512]), eps=1e-05, elementwise_affine=True)
          (norm3): LayerNorm(torch.Size([512]), eps=1e-05, elementwise_affine=True)
          (dropout1): Dropout(p=0.1)
          (dropout2): Dropout(p=0.1)
          (dropout3): Dropout(p=0.1)
        )
        (3): TransformerDecoderLayer(
          (self_attn): MultiheadAttention(
            (out_proj): Linear(in_features=512, out_features=512, bias=True)
          )
          (multihead_attn): MultiheadAttention(
            (out_proj): Linear(in_features=512, out_features=512, bias=True)
          )
          (linear1): Linear(in_features=512, out_features=4096, bias=True)
          (dropout): Dropout(p=0.1)
          (linear2): Linear(in_features=2048, out_features=512, bias=True)
          (norm1): LayerNorm(torch.Size([512]), eps=1e-05, elementwise_affine=True)
          (norm2): LayerNorm(torch.Size([512]), eps=1e-05, elementwise_affine=True)
          (norm3): LayerNorm(torch.Size([512]), eps=1e-05, elementwise_affine=True)
          (dropout1): Dropout(p=0.1)
          (dropout2): Dropout(p=0.1)
          (dropout3): Dropout(p=0.1)
        )
        (4): TransformerDecoderLayer(
          (self_attn): MultiheadAttention(
            (out_proj): Linear(in_features=512, out_features=512, bias=True)
          )
          (multihead_attn): MultiheadAttention(
            (out_proj): Linear(in_features=512, out_features=512, bias=True)
          )
          (linear1): Linear(in_features=512, out_features=4096, bias=True)
          (dropout): Dropout(p=0.1)
          (linear2): Linear(in_features=2048, out_features=512, bias=True)
          (norm1): LayerNorm(torch.Size([512]), eps=1e-05, elementwise_affine=True)
          (norm2): LayerNorm(torch.Size([512]), eps=1e-05, elementwise_affine=True)
          (norm3): LayerNorm(torch.Size([512]), eps=1e-05, elementwise_affine=True)
          (dropout1): Dropout(p=0.1)
          (dropout2): Dropout(p=0.1)
          (dropout3): Dropout(p=0.1)
        )
        (5): TransformerDecoderLayer(
          (self_attn): MultiheadAttention(
            (out_proj): Linear(in_features=512, out_features=512, bias=True)
          )
          (multihead_attn): MultiheadAttention(
            (out_proj): Linear(in_features=512, out_features=512, bias=True)
          )
          (linear1): Linear(in_features=512, out_features=4096, bias=True)
          (dropout): Dropout(p=0.1)
          (linear2): Linear(in_features=2048, out_features=512, bias=True)
          (norm1): LayerNorm(torch.Size([512]), eps=1e-05, elementwise_affine=True)
          (norm2): LayerNorm(torch.Size([512]), eps=1e-05, elementwise_affine=True)
          (norm3): LayerNorm(torch.Size([512]), eps=1e-05, elementwise_affine=True)
          (dropout1): Dropout(p=0.1)
          (dropout2): Dropout(p=0.1)
          (dropout3): Dropout(p=0.1)
        )
      )
    )
    (output_affine): Linear(in_features=512, out_features=4233, bias=True)
  )
)
2020-03-27 15:30:16,193 - /home/by2101/OpenASR/egs/aishell1/s5/../../../src/train.py[line:115] - INFO: Load package from exp/base/last-ckpt.pt.
2020-03-27 15:30:16,529 - /home/by2101/OpenASR/src/models.py[line:250] - INFO: Restore model states...
2020-03-27 15:30:25,834 - /home/by2101/OpenASR/egs/aishell1/s5/../../../src/train.py[line:128] - INFO: Restore trainer states...
…
